report 0804/onnx files/pamp2_part0_parent.onnx (onnx, 2646 bytes, 1 tensors)

MultiThreshold_0_param0 f4 [1, 255]
0	0xbf7f0000	-0.99609375
1	0xbf7d0000	-0.98828125
2	0xbf7b0000	-0.98046875
3	0xbf790000	-0.97265625
4	0xbf770000	-0.96484375
5	0xbf750000	-0.95703125
6	0xbf730000	-0.94921875
7	0xbf710000	-0.94140625
8	0xbf6f0000	-0.93359375
9	0xbf6d0000	-0.92578125
10	0xbf6b0000	-0.91796875
11	0xbf690000	-0.91015625
12	0xbf670000	-0.90234375
13	0xbf650000	-0.89453125
14	0xbf630000	-0.88671875
15	0xbf610000	-0.87890625
16	0xbf5f0000	-0.87109375
17	0xbf5d0000	-0.86328125
18	0xbf5b0000	-0.85546875
19	0xbf590000	-0.84765625
20	0xbf570000	-0.83984375
21	0xbf550000	-0.83203125
22	0xbf530000	-0.82421875
23	0xbf510000	-0.81640625
24	0xbf4f0000	-0.80859375
25	0xbf4d0000	-0.80078125
26	0xbf4b0000	-0.79296875
27	0xbf490000	-0.78515625
28	0xbf470000	-0.77734375
29	0xbf450000	-0.76953125
30	0xbf430000	-0.76171875
31	0xbf410000	-0.75390625
32	0xbf3f0000	-0.74609375
33	0xbf3d0000	-0.73828125
34	0xbf3b0000	-0.73046875
35	0xbf390000	-0.72265625
36	0xbf370000	-0.71484375
37	0xbf350000	-0.70703125
38	0xbf330000	-0.69921875
39	0xbf310000	-0.69140625
40	0xbf2f0000	-0.68359375
41	0xbf2d0000	-0.67578125
42	0xbf2b0000	-0.66796875
43	0xbf290000	-0.66015625
44	0xbf270000	-0.65234375
45	0xbf250000	-0.64453125
46	0xbf230000	-0.63671875
47	0xbf210000	-0.62890625
48	0xbf1f0000	-0.62109375
49	0xbf1d0000	-0.61328125
50	0xbf1b0000	-0.60546875
51	0xbf190000	-0.59765625
52	0xbf170000	-0.58984375
53	0xbf150000	-0.58203125
54	0xbf130000	-0.57421875
55	0xbf110000	-0.56640625
56	0xbf0f0000	-0.55859375
57	0xbf0d0000	-0.55078125
58	0xbf0b0000	-0.54296875
59	0xbf090000	-0.53515625
60	0xbf070000	-0.52734375
61	0xbf050000	-0.51953125
62	0xbf030000	-0.51171875
63	0xbf010000	-0.50390625
64	0xbefe0000	-0.49609375
65	0xbefa0000	-0.48828125
66	0xbef60000	-0.48046875
67	0xbef20000	-0.47265625
68	0xbeee0000	-0.46484375
69	0xbeea0000	-0.45703125
70	0xbee60000	-0.44921875
71	0xbee20000	-0.44140625
72	0xbede0000	-0.43359375
73	0xbeda0000	-0.42578125
74	0xbed60000	-0.41796875
75	0xbed20000	-0.41015625
76	0xbece0000	-0.40234375
77	0xbeca0000	-0.39453125
78	0xbec60000	-0.38671875
79	0xbec20000	-0.37890625
80	0xbebe0000	-0.37109375
81	0xbeba0000	-0.36328125
82	0xbeb60000	-0.35546875
83	0xbeb20000	-0.34765625
84	0xbeae0000	-0.33984375
85	0xbeaa0000	-0.33203125
86	0xbea60000	-0.32421875
87	0xbea20000	-0.31640625
88	0xbe9e0000	-0.30859375
89	0xbe9a0000	-0.30078125
90	0xbe960000	-0.29296875
91	0xbe920000	-0.28515625
92	0xbe8e0000	-0.27734375
93	0xbe8a0000	-0.26953125
94	0xbe860000	-0.26171875
95	0xbe820000	-0.25390625
96	0xbe7c0000	-0.24609375
97	0xbe740000	-0.23828125
98	0xbe6c0000	-0.23046875
99	0xbe640000	-0.22265625
100	0xbe5c0000	-0.21484375
101	0xbe540000	-0.20703125
102	0xbe4c0000	-0.19921875
103	0xbe440000	-0.19140625
104	0xbe3c0000	-0.18359375
105	0xbe340000	-0.17578125
106	0xbe2c0000	-0.16796875
107	0xbe240000	-0.16015625
108	0xbe1c0000	-0.15234375
109	0xbe140000	-0.14453125
110	0xbe0c0000	-0.13671875
111	0xbe040000	-0.12890625
112	0xbdf80000	-0.12109375
113	0xbde80000	-0.11328125
114	0xbdd80000	-0.10546875
115	0xbdc80000	-0.09765625
116	0xbdb80000	-0.08984375
117	0xbda80000	-0.08203125
118	0xbd980000	-0.07421875
119	0xbd880000	-0.06640625
120	0xbd700000	-0.05859375
121	0xbd500000	-0.05078125
122	0xbd300000	-0.04296875
123	0xbd100000	-0.03515625
124	0xbce00000	-0.02734375
125	0xbca00000	-0.01953125
126	0xbc400000	-0.01171875
127	0xbb800000	-0.00390625
128	0x3b800000	0.00390625
129	0x3c400000	0.01171875
130	0x3ca00000	0.01953125
131	0x3ce00000	0.02734375
132	0x3d100000	0.03515625
133	0x3d300000	0.04296875
134	0x3d500000	0.05078125
135	0x3d700000	0.05859375
136	0x3d880000	0.06640625
137	0x3d980000	0.07421875
138	0x3da80000	0.08203125
139	0x3db80000	0.08984375
140	0x3dc80000	0.09765625
141	0x3dd80000	0.10546875
142	0x3de80000	0.11328125
143	0x3df80000	0.12109375
144	0x3e040000	0.12890625
145	0x3e0c0000	0.13671875
146	0x3e140000	0.14453125
147	0x3e1c0000	0.15234375
148	0x3e240000	0.16015625
149	0x3e2c0000	0.16796875
150	0x3e340000	0.17578125
151	0x3e3c0000	0.18359375
152	0x3e440000	0.19140625
153	0x3e4c0000	0.19921875
154	0x3e540000	0.20703125
155	0x3e5c0000	0.21484375
156	0x3e640000	0.22265625
157	0x3e6c0000	0.23046875
158	0x3e740000	0.23828125
159	0x3e7c0000	0.24609375
160	0x3e820000	0.25390625
161	0x3e860000	0.26171875
162	0x3e8a0000	0.26953125
163	0x3e8e0000	0.27734375
164	0x3e920000	0.28515625
165	0x3e960000	0.29296875
166	0x3e9a0000	0.30078125
167	0x3e9e0000	0.30859375
168	0x3ea20000	0.31640625
169	0x3ea60000	0.32421875
170	0x3eaa0000	0.33203125
171	0x3eae0000	0.33984375
172	0x3eb20000	0.34765625
173	0x3eb60000	0.35546875
174	0x3eba0000	0.36328125
175	0x3ebe0000	0.37109375
176	0x3ec20000	0.37890625
177	0x3ec60000	0.38671875
178	0x3eca0000	0.39453125
179	0x3ece0000	0.40234375
180	0x3ed20000	0.41015625
181	0x3ed60000	0.41796875
182	0x3eda0000	0.42578125
183	0x3ede0000	0.43359375
184	0x3ee20000	0.44140625
185	0x3ee60000	0.44921875
186	0x3eea0000	0.45703125
187	0x3eee0000	0.46484375
188	0x3ef20000	0.47265625
189	0x3ef60000	0.48046875
190	0x3efa0000	0.48828125
191	0x3efe0000	0.49609375
192	0x3f010000	0.50390625
193	0x3f030000	0.51171875
194	0x3f050000	0.51953125
195	0x3f070000	0.52734375
196	0x3f090000	0.53515625
197	0x3f0b0000	0.54296875
198	0x3f0d0000	0.55078125
199	0x3f0f0000	0.55859375
200	0x3f110000	0.56640625
201	0x3f130000	0.57421875
202	0x3f150000	0.58203125
203	0x3f170000	0.58984375
204	0x3f190000	0.59765625
205	0x3f1b0000	0.60546875
206	0x3f1d0000	0.61328125
207	0x3f1f0000	0.62109375
208	0x3f210000	0.62890625
209	0x3f230000	0.63671875
210	0x3f250000	0.64453125
211	0x3f270000	0.65234375
212	0x3f290000	0.66015625
213	0x3f2b0000	0.66796875
214	0x3f2d0000	0.67578125
215	0x3f2f0000	0.68359375
216	0x3f310000	0.69140625
217	0x3f330000	0.69921875
218	0x3f350000	0.70703125
219	0x3f370000	0.71484375
220	0x3f390000	0.72265625
221	0x3f3b0000	0.73046875
222	0x3f3d0000	0.73828125
223	0x3f3f0000	0.74609375
224	0x3f410000	0.75390625
225	0x3f430000	0.76171875
226	0x3f450000	0.76953125
227	0x3f470000	0.77734375
228	0x3f490000	0.78515625
229	0x3f4b0000	0.79296875
230	0x3f4d0000	0.80078125
231	0x3f4f0000	0.80859375
232	0x3f510000	0.81640625
233	0x3f530000	0.82421875
234	0x3f550000	0.83203125
235	0x3f570000	0.83984375
236	0x3f590000	0.84765625
237	0x3f5b0000	0.85546875
238	0x3f5d0000	0.86328125
239	0x3f5f0000	0.87109375
240	0x3f610000	0.87890625
241	0x3f630000	0.88671875
242	0x3f650000	0.89453125
243	0x3f670000	0.90234375
244	0x3f690000	0.91015625
245	0x3f6b0000	0.91796875
246	0x3f6d0000	0.92578125
247	0x3f6f0000	0.93359375
248	0x3f710000	0.94140625
249	0x3f730000	0.94921875
250	0x3f750000	0.95703125
251	0x3f770000	0.96484375
252	0x3f790000	0.97265625
253	0x3f7b0000	0.98046875
254	0x3f7d0000	0.98828125
