notebooks/model/dsads.onnx (onnx, 766537 bytes, 37 tensors)

layers_conv.0.0.weight f4 [20, 1, 5, 1]
000000 9b 6d 5b bb 9f a9 75 3e 96 74 bc be ac 82 a8 be
       -0.0033482078 0.23990487 -0.36807698 -0.32912195
000010 53 61 30 be 83 9a f5 3d 91 2c 11 bc f2 8c b5 3e
       -0.17224626 0.119923614 -0.008860723 0.35459095
000020 68 8f 22 bd 5e 5b f2 3d c2 65 0a be 6f 08 b4 bd
       -0.039687544 0.11833833 -0.1351538 -0.08790671
000030 d6 bf da be 1c a5 97 be b6 c6 3c be 3c b6 87 3c
       -0.42724484 -0.29618156 -0.18435177 0.016566388
000040 de 0a 35 3e a5 63 89 3e ff 3a 9b be 35 6b 47 be
       0.17679927 0.26833835 -0.30318448 -0.1947449
000050 87 55 26 3e 00 23 be 3e b4 7d bc bd ed 57 ab 3e
       0.16243564 0.37136078 -0.092036635 0.3346552
000060 75 a0 93 bd 31 d4 41 3d 76 54 cf 3e 6c 69 d4 be
       -0.07208339 0.047321502 0.40494126 -0.4148668
000070 bd 25 90 be 55 df e7 bd f3 81 32 be 4a d5 c5 3e
       -0.28153792 -0.11321894 -0.17432384 0.3863929
000080 77 6a 94 be d4 ce 52 be 55 f8 9f be 90 72 d6 be
       -0.28987476 -0.20586711 -0.3124415 -0.4188428
000090 38 a9 85 be 36 d3 c4 3e 20 58 4c 3e 47 f4 5d 3e
       -0.26105666 0.3844239 0.19955492 0.21675216
0000a0 4e ac c0 3c 1f c8 6a be 84 f4 9a 3d 8d ca d5 be
       0.023519661 -0.22927903 0.07566169 -0.41756096
0000b0 cc 72 a5 be d4 15 6c be cd 77 90 3e 7f 40 86 3e
       -0.32314146 -0.23055202 0.282164 0.26221082
0000c0 db 18 4b be c4 30 84 bc 3f 71 92 3e 48 a1 e3 3e
       -0.198337 -0.016136535 0.28602025 0.44458985
0000d0 3a c0 35 3e 19 76 77 3d 05 86 99 3e ef d1 86 be
       0.1774911 0.06041536 0.2998506 -0.26332042
0000e0 d8 ab aa 3d 39 86 b1 be c1 b2 9e be 58 91 6c be
       0.08333558 -0.34672716 -0.30995753 -0.23102319
0000f0 63 35 4f 3e 04 2b 38 3e 09 a2 87 be 55 59 0a 3e
       0.20235209 0.17985159 -0.2649081 0.1351064
000100 62 66 7b 3e 0c 34 67 bd 83 e1 8b 3c 82 37 d4 3d
       0.24550775 -0.05644612 0.017075306 0.1036215
000110 ba 0c 8e 3e df db db 3e c8 73 b0 be d8 d2 27 be
       0.27744085 0.42941186 -0.34463334 -0.16389024
000120 44 fa 33 3e 3a b7 bd 3e 19 41 c7 3e 44 09 ca 3e
       0.17575938 0.37053853 0.38916853 0.39460194
000130 af 46 b6 3d 7c 1c c7 be ba 82 28 3d 39 3f 8f be
       0.089002006 -0.3888892 0.041140296 -0.27977923
000140 86 64 d5 be ec 70 cb 3e 25 1a ae 3e 47 68 e4 be
       -0.41678256 0.3973459 0.34004322 -0.44610807
000150 fe 6d ab 3d 9a 4a 9a bd 71 b8 96 bd d6 a0 51 be
       0.08370589 -0.0753376 -0.07359398 -0.2047151
000160 32 1b 30 3e 29 9f 87 be 1a e1 27 3e 5d 96 67 3e
       0.17197874 -0.26488617 0.16394463 0.22615953
000170 5f ea a3 3e 3c 3b 2b 3e 7d 9f e2 be c8 88 94 be
       0.32014748 0.16721815 -0.44262305 -0.29010606
000180 e0 a8 64 3e 9f b2 bf 3d 53 9e b2 be ea d8 83 be
       0.22330046 0.09360241 -0.34886417 -0.2575143

layers_conv.0.2.weight f4 [20]
000000 00 00 80 3f 00 00 80 3f 00 00 80 3f 00 00 80 3f
       1.0 1.0 1.0 1.0
000010 00 00 80 3f 00 00 80 3f 00 00 80 3f 00 00 80 3f
       1.0 1.0 1.0 1.0
000020 00 00 80 3f 00 00 80 3f 00 00 80 3f 00 00 80 3f
       1.0 1.0 1.0 1.0
000030 00 00 80 3f 00 00 80 3f 00 00 80 3f 00 00 80 3f
       1.0 1.0 1.0 1.0
000040 00 00 80 3f 00 00 80 3f 00 00 80 3f 00 00 80 3f
       1.0 1.0 1.0 1.0

layers_conv.0.2.bias f4 [20]
000000 00 00 00 00 00 00 00 00 00 00 00 00 00 00 00 00
       0.0 0.0 0.0 0.0
000010 00 00 00 00 00 00 00 00 00 00 00 00 00 00 00 00
       0.0 0.0 0.0 0.0
000020 00 00 00 00 00 00 00 00 00 00 00 00 00 00 00 00
       0.0 0.0 0.0 0.0
000030 00 00 00 00 00 00 00 00 00 00 00 00 00 00 00 00
       0.0 0.0 0.0 0.0
000040 00 00 00 00 00 00 00 00 00 00 00 00 00 00 00 00
       0.0 0.0 0.0 0.0

layers_conv.0.2.running_mean f4 [20]
000000 df 00 8b 39 2b 5d 61 3d 00 00 00 00 d3 90 03 3c
       0.00026512795 0.055020493 0.0 0.008030134
000010 c2 09 96 3d 3b d3 36 3b 60 a1 fb 39 96 d7 99 3c
       0.0732608 0.00278969 0.00047994684 0.018779557
000020 00 00 00 00 48 8f 64 3c 97 3c fa 3d 00 00 00 00
       0.0 0.013950177 0.12218588 0.0
000030 cf ee 48 3d fa 33 96 3d 9a aa 38 3d 39 6c 05 3c
       0.04905587 0.073341325 0.045084573 0.008143478
000040 fe 95 4d 3c 4c ea 60 39 1a fa 4d 3d 84 ca f1 39
       0.012547968 0.00021449587 0.050287344 0.00046117988

layers_conv.0.2.running_var f4 [20]
000000 dc 5d 4f 3f 71 1c 50 3f 28 5c 4f 3f 99 9d 4f 3f
       0.81002593 0.812934 0.80999994 0.8109985
000010 0b 92 50 3f 45 76 4f 3f ea 5f 4f 3f c9 2e 50 3f
       0.81472844 0.8103984 0.8100573 0.8132139
000020 28 5c 4f 3f 73 cc 4f 3f e0 13 51 3f 28 5c 4f 3f
       0.80999994 0.8117134 0.8167095 0.80999994
000030 34 41 50 3f 1b 8f 50 3f 41 f1 50 3f c5 aa 4f 3f
       0.8134949 0.8146836 0.81618124 0.8111995
000040 1d 02 50 3f 4c 5d 4f 3f 45 ee 50 3f 83 5f 4f 3f
       0.81253225 0.81001735 0.8161357 0.81005114

layers_conv.1.0.weight f4 [20, 20, 5, 1]
000000 5b aa c0 3d 77 ff 89 3d 8d 98 32 bd 20 2e ce bc
       0.09407493 0.06738179 -0.043602515 -0.025168478
000010 93 17 c3 bd 33 97 eb ba fa 39 9a bd 4f f9 9d bd
       -0.09525981 -0.0017974138 -0.075305894 -0.077135675
000020 e7 8c b4 bb 67 ff 75 3c 5d be 27 bd 27 0c 73 3d
       -0.005509961 0.015014506 -0.04095303 0.05933776
000030 f3 41 79 bd 53 d4 b9 3d 73 59 8c 3d 50 b4 ac bd
       -0.06085391 0.09073701 0.068529986 -0.084328294
000040 d3 e2 cb bc 9a db 93 3b 5a 0b 6f 3c 0d 4b c2 3c
       -0.024888432 0.0045122625 0.014590109 0.023717428
000050 17 bd 20 3d e7 47 c4 3b 0a db 47 bd 77 d1 41 3d
       0.03924283 0.0059900167 -0.048792876 0.047318902
000060 45 74 c4 bd cd c5 72 bd fa 11 cd bc 8a 85 47 bd
       -0.09592489 -0.05927067 -0.025032986 -0.048711337
000070 b0 4a 0f bd c8 db a7 bd 9a 41 ae bc fa 1b af 3c
       -0.034983337 -0.08196217 -0.021271516 0.021375645
000080 92 6b 85 bd cd 29 a8 bb 33 9b 92 3d 8d 6d 28 bc
       -0.06514658 -0.005131936 0.07158508 -0.010280025
000090 9a 23 36 3b cd 57 0d bc 73 ca a5 3c 4d 38 82 3d
       0.0027792216 -0.00862689 0.020238137 0.06358395
0000a0 fb fe c1 3d 38 0f 82 3d 9d 70 c2 3d cd fb ec bb
       0.09472462 0.06350559 0.094941355 -0.0072321654
0000b0 eb f9 b7 bd 9a 2e 42 bd 0b 73 8b 3d 33 ef 29 ba
       -0.08983215 -0.047407724 0.06809052 -0.0006482482
0000c0 17 97 4b bd cf f0 9c bd 9a a9 bf bd 57 da ac bd
       -0.049704637 -0.07663118 -0.09358521 -0.084400825
0000d0 f3 29 a6 bc 8a a0 60 3d 53 72 5d 3d 02 84 c5 bd
       -0.020283675 0.054840602 0.054064106 -0.09644319
0000e0 4a 80 7f 3d 08 42 a0 bd f3 2f ad bc e3 14 26 bd
       0.062378205 -0.078250945 -0.021141028 -0.040547263
0000f0 5a ca 9d bc 0d d8 a0 bc fb c6 b7 bd 03 d5 b0 bd
       -0.019261528 -0.019634271 -0.089734994 -0.08634379
000100 20 30 80 bc 33 81 a9 3a 2d 12 3a bd c7 4b 1a 3d
       -0.015647948 0.0012932181 -0.04542749 0.037669923
000110 fb 54 b8 bd 67 24 dd bb e8 1a b4 3d 93 12 27 bd
       -0.09000584 -0.0067487243 0.087941945 -0.040789198
000120 5f ef b8 3d 93 56 14 3d f2 d2 b8 bd 90 93 81 3d
       0.090300314 0.036215376 -0.090246096 0.063269734
000130 f3 0f 3d bc 27 d9 36 bd dd c4 a3 3d 77 7f a5 bd
       -0.011539447 -0.044640686 0.07996533 -0.080809526
000140 f3 ce 2f 3c cd 83 ab bc 12 40 92 3d da ac e4 3c
       0.010730493 -0.020936871 0.07141127 0.027914453
000150 a3 d0 44 3d 67 a7 10 3d 33 ff c4 bc 40 48 ac bc
       0.048050534 0.035315897 -0.02404747 -0.021030545
000160 9a c5 a8 bd 7a f0 5d 3d 52 9b a2 3d 17 21 8c 3d
       -0.082408145 0.054184414 0.07939781 0.06842249
000170 23 76 90 bd 1a 25 92 3b da 5e 90 bd 73 7a 61 bd
       -0.07053783 0.0044599893 -0.070493415 -0.055048417
000180 1a ad 6e bd 90 fa 0b 3d 07 16 74 bd 33 fb 0e bb
       -0.05827055 0.034174502 -0.05959132 -0.0021817207
000190 4d d9 89 3b d0 04 84 3d fb cf 9a bd 03 99 8c bd
       0.0042068125 0.064462304 -0.075592004 -0.06865122
0001a0 c7 d6 6d bd ab 58 8f 3d a3 3c 13 bd 1a bf ac 3d
       -0.058066156 0.06999334 -0.0359465 0.08434887
0001b0 4d 1d 14 3d cd 76 4f 3c 00 24 43 ba d3 f0 a1 bc
       0.036160756 0.012662602 -0.0007444024 -0.019768154
0001c0 67 90 4d 3c 5a 0f bb bc 9a 31 38 ba 67 0c 51 3c
       0.012546635 -0.022834469 -0.0007026434 0.012759305
0001d0 13 32 a0 bd 2a af 56 bd e0 5f a5 3d 6b 34 a6 bd
       -0.07822051 -0.052413143 0.08074927 -0.08115467
0001e0 67 4b eb bb 9a 98 ca 3d 73 f6 13 3d 67 8d 39 3b
       -0.0071806195 0.09892388 0.036123704 0.0028313042
0001f0 52 7b b1 bd 23 e8 4a 3d 07 e0 91 bd a7 8a e8 bc
       -0.086660996 0.04953779 -0.07122808 -0.028386427
000200 70 6d 09 bd 5a a0 72 bc cd 5e 8f 3a ab eb a8 3d
       -0.033551633 -0.014808739 0.0010938287 0.08248075
000210 33 89 4c 3c 1a 70 b7 3d b3 8e 7a 3d 38 7a 81 bd
       0.012483883 0.089569286 0.061171245 -0.063221395
000220 10 b5 37 3d b7 c5 90 bd 4a 99 2d bd 00 f2 f0 3c
       0.04485041 -0.07068961 -0.042382516 0.02941227
000230 27 3f 07 3d 8f a5 99 3d 53 db 03 bd cd dc 27 39
       0.03301921 0.07502281 -0.032191586 0.00016008616
000240 2a df 52 3d 7b 0f c6 bd 02 11 94 3d 8d 5a a9 bd
       0.051482357 -0.096709214 0.072298065 -0.08269224
000250 67 a6 b4 3a 1a 47 8b bc aa b9 57 bd 8d 8c 58 3c
       0.0013782502 -0.017001677 -0.052667297 0.013217104
000260 5b 5a a9 3d da 77 ef bc 57 2d 73 bd 6a 7c 17 bd
       0.08269187 -0.029231954 -0.05936941 -0.036983885
000270 b8 fc ca bd 17 e4 38 3d 4d b7 44 bd da ab 88 bd
       -0.099114835 0.0451394 -0.04802637 -0.06673403
000280 9d f8 6b bd 83 80 6b 3d d3 e9 58 3d 40 30 9d 3d
       -0.057610143 0.057495605 0.052957367 0.076752186
000290 47 92 14 3d 37 ca 08 bd 87 ec e4 bc 27 04 f2 3c
       0.036272313 -0.033395972 -0.027944816 0.029542996
0002a0 4b 5a a8 3d ed bb de 3c e3 cc 41 bd 30 8b 40 bd
       0.08220347 0.02718922 -0.047314536 -0.04700774
0002b0 cf a1 c1 bd 8d fc b0 3c 40 dc 65 bd 40 98 b6 bd
       -0.09454691 0.0216048 -0.05611825 -0.08915758
0002c0 95 95 b3 3d da ff 84 bd 0d 63 3a bc 0d b2 ea 3c
       0.08768765 -0.06494112 -0.011376155 0.028649354
0002d0 67 c9 50 3b 62 ce 89 bd 57 8b a5 bd 13 3e a3 3d
       0.0031858326 -0.067288175 -0.080832176 0.07970824
0002e0 c0 65 85 3c 38 e8 a9 3d 87 50 09 bd c0 4c f1 3c
       0.01628387 0.08296245 -0.033524062 0.029455543
0002f0 e0 54 bb bc 1a b9 91 bb ea 76 79 bd f0 86 0a 3d
       -0.02286762 -0.0044471147 -0.06090442 0.033820093
000300 67 80 01 3d 00 31 07 bb 67 3d b8 bc 5a 7d 7c bd
       0.031616595 -0.0020628572 -0.022490216 -0.061642982
000310 dd a0 8d 3d 43 75 98 bd 8a cc 27 3d bd ba 09 bd
       0.06915448 -0.07444241 0.040966548 -0.033625353
000320 70 9e 45 bd 4d 2a 93 3c 03 c5 54 bd 67 bf bc 3c
       -0.0482468 0.017964507 -0.051945698 0.023040486
000330 0d e0 a0 3c d5 0f 98 bd 47 65 88 3c ea 75 2e 3d
       0.019638086 -0.07424895 0.016649855 0.04259292
000340 e3 21 22 3d 5a 3d 4e bc 7b e4 a7 bd e7 90 7c bc
       0.0395831 -0.01258787 -0.08197876 -0.015415407
000350 da 41 0e 3d 23 74 15 bd f7 79 1b 3d 9f 63 88 3d
       0.03473077 -0.03648771 0.03795811 0.06659626
000360 90 df 55 bd cd 42 81 3a 83 5e 29 3d 0d 6a 00 3c
       -0.05221516 0.0009861827 0.0413499 0.0078377845
000370 a7 db 08 3c 5a 94 4c 3c c8 00 a1 bd 4d c2 00 3c
       0.00835315 0.012486542 -0.07861477 0.007858825
000380 5d d1 8d 3d 50 8c b8 3d 27 be 70 3d f3 8c 5b 3c
       0.069246985 0.090111375 0.058775093 0.013400304
000390 fd 49 3f 3d 17 43 47 bd 23 b7 a9 bd a2 1c b0 bd
       0.04670142 -0.048647966 -0.08286884 -0.08599211
0003a0 7b 4f cc 3d 3f 01 82 3d 8f 90 8d bd c3 40 20 3d
       0.09976097 0.06347894 -0.06912338 0.03912426
0003b0 88 a8 9a 3d 9b b8 cc 3d 7a 13 b3 3d 6a ab 9e 3d
       0.07551676 0.09996148 0.08743949 0.077475384
0003c0 27 cf bb bc e7 be 0f bd 9b 26 a8 3d 10 88 65 3d
       -0.022925926 -0.035094168 0.082104884 0.056037962
0003d0 1a 7d 76 bd 65 1e b8 3d da e6 45 3d 9a 49 5f 3d
       -0.0601779 0.08990172 0.04831586 0.05451355
0003e0 22 5d 80 bd 40 07 eb 3c 23 97 0f bd 97 05 a0 3d
       -0.06267764 0.02868998 -0.035056245 0.07813566
0003f0 47 68 93 bc 60 76 1f 3d 00 82 91 3c 93 45 2e 3d
       -0.01799406 0.03893125 0.017762184 0.04254682

layers_conv.1.2.running_mean f4 [20]
000000 b7 2b 08 3d 7b be c4 3c 0a f0 cf 3d 38 15 ff 3c
       0.033244815 0.02401661 0.10153206 0.031138048
000010 43 8b 1b 3d 90 2e 2f 3d b8 d4 fb 3c d6 08 5c 3d
       0.037974607 0.042769015 0.03074108 0.053719364
000020 33 32 36 3d b1 7d 1f 3d 42 49 b6 3c 4d a8 35 3d
       0.044481467 0.038938228 0.022251729 0.044349957
000030 a8 0d 3b 3d af 56 02 3d 9c 99 de 3c 38 2f 3a 3d
       0.04566732 0.03182095 0.027172856 0.045455188
000040 ce d0 35 3d 3a be 19 3d bc 71 85 3d 98 6c 05 3d
       0.044388585 0.03753493 0.06515834 0.032574266

layers_conv.1.2.running_var f4 [20]
000000 aa 8d 53 3f 0c 67 52 3f a3 6d 5c 3f a5 b2 53 3f
       0.8263804 0.8218849 0.8610479 0.82694465
000010 72 8e 54 3f 72 d2 54 3f 3e eb 52 3f a2 30 56 3f
       0.83029854 0.83133614 0.823902 0.8366796
000020 6a 05 57 3f fa f1 54 3f 5d 31 53 3f 11 96 54 3f
       0.83992636 0.83181727 0.824972 0.83041483
000030 43 d4 54 3f 7f 95 53 3f 00 3e 54 3f e5 b6 55 3f
       0.83136386 0.8264999 0.82907104 0.834822
000040 72 cb 53 3f 13 19 54 3f 2d 66 58 3f 6a ad 53 3f
       0.8273231 0.8285076 0.8453091 0.82686484

layers_conv.2.0.weight f4 [20, 20, 5, 1]
000000 07 02 cc bd 27 0c 22 3c da e0 08 bc 87 d7 bd bc
       -0.09961324 0.009890593 -0.00835439 -0.02317406
000010 7d 90 8b 3d 83 ea ac 3d 73 6c 55 3c 9a ab 10 bd
       0.06814668 0.08443167 0.013026345 -0.035319902
000020 2b 42 98 3d 6d ab 80 3d 8d 22 93 3c 80 0f e0 bc
       0.074344955 0.06282697 0.017960811 -0.027351141
000030 4d 26 8a 3b 7a 89 b6 3d f3 ac 31 3c 8d 6f a1 bc
       0.0042159916 0.0891294 0.010844457 -0.019706512
000040 1f 65 ad bd 5d 7f 5b bd e8 e9 93 3d 9a c6 66 bb
       -0.08466553 -0.05358826 0.072223485 -0.003521359
000050 4d 36 da bb 6d 7b 1f 3d 53 be 86 bd 4d 5b dd bb
       -0.006659305 0.038936067 -0.0657927 -0.0067552687
000060 53 67 e6 bc b0 4f 56 3d d0 ab a6 3d 72 98 80 3d
       -0.02812544 0.05232209 0.081382394 0.06279077
000070 97 b0 98 3d b8 07 b7 bd 33 6a 11 bd 40 03 42 3c
       0.07455557 -0.08937019 -0.03550167 0.011841595
000080 a7 f2 ad bd 00 3a de 3c 1f 3e 86 bd ca 84 2f 3d
       -0.08493548 0.027127266 -0.065548174 0.042851247
000090 5f c1 a5 3d 2b 32 af bd 50 9c ab 3d b3 1e 3f 3d
       0.08093523 -0.08554491 0.083794236 0.046660136
0000a0 e7 26 87 bd ad 07 c4 3d fa 5f b1 bd 1a e0 89 bd
       -0.06599217 0.095717765 -0.08660884 -0.06732197
0000b0 f7 c0 4b bd 9a ee a5 bb 9a 1a 93 3c 40 69 f0 bc
       -0.049744572 -0.005063844 0.01795702 -0.029347062
0000c0 7f 1e c2 bd 80 1f 3d bc 92 62 9b 3d e3 ae 9d 3d
       -0.09478473 -0.011543155 0.0758716 0.076993726
0000d0 e0 0a 4d 3d a7 e0 6d 3c e7 8c cb 3c dd e1 9d bd
       0.0500592 0.014518893 0.02484746 -0.077090956
0000e0 fd dc 25 3d 05 d3 cb bd 07 27 29 bd 8d 48 d7 bc
       0.040493954 -0.09952358 -0.041296985 -0.026279712
0000f0 28 64 96 3d 9a 0a 3f bb 9d 93 3a bd 13 1f 8f 3c
       0.07343322 -0.0029150606 -0.04555093 0.017470872
000100 dd ef a9 bd a7 e3 d8 bc 13 e1 e2 3c 67 04 d9 bb
       -0.082977034 -0.02647574 0.027695214 -0.0066228393
000110 73 10 2c bc 5d 56 7a 3d 63 92 9b bd 4a d1 4e bd
       -0.010501969 0.06111752 -0.075962804 -0.050492562
000120 95 3d c6 3d 00 03 a3 3c 33 a3 84 bc ca 2a 54 3d
       0.096797146 0.019898891 -0.0161911 0.05179862
000130 b3 68 76 3d a7 e3 88 bc 87 9d 2a bd 8d e7 85 bc
       0.060158443 -0.016710116 -0.041654136 -0.016345764
000140 ad ba 14 3d b3 29 51 bc 30 63 6e 3d ea 02 a7 bd
       0.03631084 -0.0127662895 0.05820006 -0.08154853
000150 77 f6 48 bd 8f 20 9c 3d a7 f0 56 3c b3 f6 a4 3c
       -0.049063172 0.076233976 0.013118899 0.020137167
000160 2d b7 06 3d 47 92 c1 bc 5d cd 23 bd fa 03 eb 3c
       0.032889534 -0.02362932 -0.03999077 0.02868842
000170 07 1d d9 bc 73 34 29 bd 27 76 58 3c 33 26 c6 3c
       -0.0265031 -0.041309785 0.013211763 0.024188137
000180 0d ef 13 bc 5a 81 8a bd cd ba 77 bc b0 21 68 bd
       -0.009029162 -0.06762953 -0.01512022 -0.056672752
000190 50 94 57 3d 4f b3 87 bd 62 4b a3 3d 8d 23 23 3d
       0.052631676 -0.06625997 0.079733625 0.039828826
0001a0 ad 5f af bd 77 fb 97 3d bd 88 ca bd 67 84 be bb
       -0.085631706 0.0742101 -0.09889362 -0.0058141234
0001b0 97 bc 7f bd 33 2f b0 bd 27 55 22 3c 20 99 46 bd
       -0.062435713 -0.086027525 0.009907997 -0.048485875
0001c0 6a 09 94 3d cb fe a0 bd 1a fd a9 3d 47 1c 77 3d
       0.07228358 -0.07861098 0.083002284 0.0603297
0001d0 48 60 b3 3d 5a e3 ef bc fd 10 7b bd dd 0f 88 bd
       0.087585986 -0.029283214 -0.0612955 -0.06643651
0001e0 3f 4e aa 3d a0 b9 4b bd 67 bb 49 bc 8d 89 7c bc
       0.083157055 -0.049737573 -0.012312747 -0.015413654
0001f0 ed ee 8c 3c fd 0d a8 bd 67 23 a5 3d 17 8a 97 bd
       0.017203772 -0.08205793 0.08063393 -0.073993854
000200 d7 6e c9 3d 20 45 20 bd c3 da 36 bd c0 33 61 bc
       0.09835594 -0.039128423 -0.04464222 -0.013745248
000210 80 72 f2 3c 07 c9 97 bc 7b 66 cc bd 90 0d 90 3d
       0.029595613 -0.018528474 -0.09980484 0.07033837
000220 1d da ca 3d ad a7 4e 3d f5 66 c8 3d f3 45 df 3c
       0.09904883 0.050452877 0.097852625 0.027255034
000230 73 62 00 bc 4b 1f a3 bd 08 ff b2 bd 12 01 8d bd
       -0.007835972 -0.07964953 -0.087400496 -0.0688497
000240 93 d9 cf bc 50 83 6e 3d 90 fe 28 bd 67 89 7e bb
       -0.025372302 0.058230698 -0.041258395 -0.0038839222
000250 9a fb b8 ba 9a df 85 bd 33 68 31 bb d2 be c5 3d
       -0.0014113069 -0.06536789 -0.0027070164 0.09655537
000260 f5 af a3 3d c8 fa 9b 3d e7 96 21 bc cd 74 e8 3a
       0.079925455 0.07616192 -0.009862638 0.0017735005
000270 40 ec 5f 3d 6d 3e 08 bd c3 ff 25 bd 7f 39 af 3d
       0.054668665 -0.03326266 -0.040527117 0.085558884
000280 b3 13 bb 3b 47 48 8a bd c8 90 ac 3d f3 f7 87 3c
       0.0057091354 -0.06752067 0.08426052 0.016597724
000290 da 28 5b 3d f2 de b1 bd 33 05 98 3c 33 88 7a 3d
       0.053505756 -0.086851016 0.018557167 0.061165046
0002a0 27 5d 6c bc 8a d1 68 bd 33 da a3 3d 7a 83 3e 3d
       -0.014426506 -0.056840457 0.080006026 0.046512105
0002b0 13 50 e9 3c 00 bd c1 3c 00 a6 10 3b 5a e4 6a 3d
       0.028480565 0.023649693 0.00220716 0.05734668
0002c0 60 15 b3 bc e0 1b 71 bd ad 67 1c 3d 1a 8f da 3c
       -0.021860778 -0.058864474 0.03818481 0.026679564
0002d0 63 f4 1b 3d 9a fa 35 bc 40 6c 59 bc e7 37 02 bc
       0.038074862 -0.011107111 -0.013270438 -0.0079478985
0002e0 47 02 d8 3c b2 27 9d bd c2 e2 be bd 4a 45 19 3d
       0.026368273 -0.07673587 -0.09320594 0.037419595
0002f0 ed 41 60 bd a7 d3 09 bc 0d 1b e3 3c 0d cd 65 3c
       -0.05475037 -0.008412278 0.02772286 0.014025939
000300 db 06 84 3d 67 c4 56 3c 4d d0 ca 3c 9a a7 12 bc
       0.0644662 0.013108349 0.024757529 -0.008951092
000310 0d d8 71 3c bd 30 16 3d b0 b7 8b 3d eb 0c c2 bd
       0.014760983 0.036667574 0.06822145 -0.0947512
000320 d0 9f 2a bd 60 c6 b7 bd 20 4e 23 bd 0d af 79 3d
       -0.041656315 -0.08973384 -0.039869428 0.060957957
000330 63 0c c2 bd 28 81 b7 bd f7 2a 6d 3d 4d e2 71 bd
       -0.09475019 -0.089601815 0.057902303 -0.059053708
000340 6f ae 95 3d fa 40 ff 3c fa a1 cd 3c 18 b2 a2 3d
       0.07308661 0.031158913 0.02510165 0.07944125
000350 8b b4 bd bd 5b f9 95 3d 13 d5 04 3d 0b 3d 89 bd
       -0.092629515 0.073229514 0.032429766 -0.06701096
000360 3a 52 c7 3c 87 4f e4 bc d3 68 24 bd c0 71 31 bc
       0.0243312 -0.027869953 -0.04013903 -0.010830343
000370 b0 1c 41 bd ab 15 b3 3d 95 45 b0 3d da c7 2e bc
       -0.0471465 0.08744367 0.08607022 -0.0106677655
000380 a3 9c b5 bd b3 75 c8 bb e7 7f d8 3b 83 e4 88 3d
       -0.08867767 -0.0061175465 0.006607044 0.0668421
000390 33 db 52 3b c7 6c ee 3c d3 5c d9 3c 5d 68 68 bd
       0.003217411 0.029104603 0.02653352 -0.056740154
0003a0 c7 11 7e bd 4b 0b b7 bd 33 db 4d ba fa ba fd 3c
       -0.062028673 -0.08937701 -0.00078527926 0.030972946
0003b0 00 ff e8 bb dd ca c6 3d cd 45 9c bc 35 a3 85 bd
       -0.0071104765 0.09706662 -0.019076252 -0.0652527
0003c0 c7 88 88 3c 20 b2 e6 bc 73 9b 60 bc e2 70 c6 3d
       0.016666783 -0.028161108 -0.013708937 0.096894994
0003d0 00 0a 3c bb bf e6 b2 3d 0d cd 5a 3c 50 61 18 bd
       -0.0028692484 0.087354176 0.013354552 -0.03720218
0003e0 aa 26 96 3d ea 51 69 bd 9a d6 58 3b 87 22 b8 3c
       0.07331593 -0.056962885 0.0033086897 0.022477401
0003f0 ad d7 37 3d ef f5 bc bd e7 be a0 3b 67 1b d4 bc
       0.04488342 -0.092265956 0.00490557 -0.025891973

layers_conv.2.2.running_mean f4 [20]
000000 da e4 24 3d 68 b2 e8 3c 7e dc d9 3c 48 ca 18 3d
       0.040257312 0.028405383 0.026594397 0.037302285
000010 96 da 83 3d 06 28 22 3d c6 bf 34 3d 16 c0 9b 3c
       0.06438176 0.03958895 0.044128202 0.019012492
000020 38 03 4a 3d b6 7c a5 3d a6 6d 20 3d b6 e5 bb 3c
       0.049319476 0.08080427 0.03916707 0.022936683
000030 ec 72 3c 3d 4b 1a 03 3d 18 bd 21 3d c3 fe 80 3d
       0.046008036 0.032007497 0.039486974 0.06298592
000040 73 6a 52 3d 2b 12 44 3d 52 98 a5 3d a1 56 37 3d
       0.05137105 0.04786889 0.080856934 0.04476035

layers_conv.2.2.running_var f4 [20]
000000 64 5f 55 3f 38 80 53 3f fc a1 53 3f 42 46 54 3f
       0.8334868 0.8261752 0.82669044 0.82919705
000010 44 5a 56 3f 5d 3b 54 3f c7 d5 54 3f ab e5 51 3f
       0.83731484 0.8290308 0.831387 0.8199107
000020 5e fa 55 3f 5b 90 5a 3f 23 a6 54 3f 7e 64 52 3f
       0.83585155 0.8537652 0.83066005 0.8218459
000030 52 aa 55 3f 26 0c 54 3f 75 72 54 3f c1 dd 56 3f
       0.83463013 0.8283104 0.8298715 0.8393212
000040 73 55 59 3f dd 64 54 3f 91 ee 5b 3f 98 5e 56 3f
       0.8489601 0.82966405 0.859109 0.8373809

layers_conv.3.0.weight f4 [20, 20, 5, 1]
000000 40 74 0a 3c e3 34 36 bd 7a bc bf 3c 90 92 88 bd
       0.008450568 -0.04448403 0.023405302 -0.066685796
000010 10 58 be 3d b3 81 b3 3d 6d e6 3c 3d 93 b0 58 3d
       0.0929414 0.087649725 0.04611819 0.05290277
000020 38 95 cb bd 07 b1 63 bd 83 12 c5 bd 67 7c 55 bd
       -0.099405706 -0.05558875 -0.096226715 -0.052120592
000030 5b cb a9 bd 58 bf 96 3d f7 fb 5c 3d 03 38 71 3d
       -0.0829074 0.07360715 0.05395123 0.058891308
000040 f3 d5 35 bd 8f 18 9c 3d 9a bf 6c bc d3 3e d4 bc
       -0.04439349 0.07621872 -0.014449978 -0.025908863
000050 bd 8a 5c 3d 00 a0 87 3d 2f 32 93 bd c3 f9 c2 3d
       0.05384325 0.066223145 -0.07187306 0.095202945
000060 e7 5c 25 bc 93 2f da 3c 47 ed cb bd 4d 65 36 3c
       -0.01009295 0.026634013 -0.099573664 0.01113255
000070 ba b7 4a bd cf 3b 80 bd ca 04 2b bd 00 38 f4 b9
       -0.04949162 -0.062614076 -0.041752614 -0.0004658103
000080 ed 5f e9 bc 95 31 83 bd 37 a2 92 3d 1a b6 f3 3c
       -0.028488124 -0.064059414 0.07159846 0.029749919
000090 93 98 be bd 73 d7 ab 3c 5a 3c c9 3c cd d0 70 3b
       -0.09306445 0.020976758 0.02456491 0.0036745549
0000a0 3a ec c6 3c 8d 2c 09 bc b3 22 33 3d cf 2c 90 bd
       0.024282563 -0.008372438 0.043734264 -0.070397966
0000b0 5d a5 2e bd bd 6a 99 3d 8a c3 7d bd 70 f6 48 3d
       -0.04263817 0.07491062 -0.06195406 0.049063146
0000c0 eb 7e bd 3d 75 45 bb bd 9a 72 33 bd 63 c5 ae 3d
       0.09252723 -0.09144107 -0.043810464 0.08533742
0000d0 67 23 c6 bb a0 b8 a1 3c 27 2d 69 3c ba cb 28 3d
       -0.0060467008 0.019741356 0.014231957 0.041209914
0000e0 a7 c4 28 bd 67 b3 54 3c 80 81 8b 3d 40 38 0a bc
       -0.041203167 0.012982226 0.068118095 -0.008436263
0000f0 20 e5 bb bd 97 94 0d 3d 5a 21 d1 bc 4d d3 ac bc
       -0.091745615 0.034565534 -0.025528599 -0.02109685
000100 f0 9e 55 3d 53 91 8f 3c d3 c9 77 bd ad 04 3d bd
       0.052153528 0.01752535 -0.06049521 -0.046147037
000110 73 0d 79 bc 53 65 ca bc a7 6c ad bc 8f fb 8b bd
       -0.01520096 -0.024706518 -0.021169974 -0.0683509
000120 cd 5c 94 3d 70 6d 54 3d 73 aa a1 3c 00 7c b9 3c
       0.07244263 0.05186218 0.019734597 0.022642136
000130 f3 cd 3f 3c cd 22 99 3d 93 5e b9 3c b3 94 79 3c
       0.011706817 0.07477341 0.022628104 0.015233207
000140 60 29 61 bd 9a a3 08 3d 97 99 bf bd e0 2e 01 3d
       -0.0549711 0.033359148 -0.09355467 0.031538844
000150 ba 84 b1 bd 9a 85 29 bd 60 3e 58 3d 73 f6 73 bd
       -0.08667894 -0.041387178 0.05279386 -0.059561204
000160 a7 13 a3 3d f7 4f 62 bd 15 fc c1 3d c0 7c fc 3c
       0.07962733 -0.05525204 0.09471909 0.030821204
000170 7a 80 31 bd 70 ce 79 3d 90 5e b5 bd 2a bd 81 bd
       -0.043335415 0.06098789 -0.08855927 -0.06334908
000180 2a 4f 80 bd cd ad 57 3c 1a f6 20 3c 63 26 b0 bd
       -0.06265099 0.013163996 0.0098243 -0.08601072
000190 bb 9f c5 3d cd 6c c8 b8 9d b9 5a bd 67 8a 1c 3b
       0.09649607 -9.557009e-05 -0.05339967 0.0023886205
0001a0 7a d2 2f bd c0 02 e2 3c 6d 47 14 3d 0d 60 e8 bc
       -0.042925335 0.027589202 0.03620093 -0.028366113
0001b0 00 08 bf 3b 1d b7 73 3d 55 35 85 bd fa ab b6 bc
       0.005829811 0.059500802 -0.06504313 -0.022298802
0001c0 4d b4 71 bc 92 7f 87 bd 73 71 05 3c 9a dc 70 3b
       -0.01475246 -0.06616129 0.008144724 0.0036752583
0001d0 3f 6c a5 bd 53 0c a8 3c 88 79 c3 3d 1a dd 59 3d
       -0.08077287 0.02051369 0.095446646 0.053189375
0001e0 c0 2e 5e bd 93 77 bb 3d 3f c7 8c bd 67 42 50 bd
       -0.054243803 0.09153666 -0.06873941 -0.050844576
0001f0 f7 ab 34 3d 48 ed a2 3d 13 70 c3 3d 3d 51 b0 3d
       0.04410931 0.07955414 0.09542861 0.08609245
000200 63 8b 61 bd 6d 74 bb 3c c8 98 80 bd 9a b9 10 3b
       -0.05506457 0.022882665 -0.06279141 0.0022083283
000210 85 ad a9 3d 03 af 49 3d 62 1b bd bd d7 47 30 bd
       0.08285049 0.04923917 -0.092337385 -0.04303726
000220 55 cc ac bd 6a f3 40 3d 9a fc 4f bc a8 b6 95 bd
       -0.08437411 0.047107138 -0.012694502 -0.073102295
000230 9d e2 02 bd 87 6a 06 3d b3 ae 17 3c 53 2a c0 3d
       -0.031954397 0.032816436 0.00925796 0.09383073
000240 67 04 ae ba ad d7 00 3d 67 28 f8 bc cd 81 43 3c
       -0.0013276458 0.031455684 -0.030292703 0.011932802
000250 cd c5 6a 3b 5b eb af 3d 70 a0 2b 3d 83 6d 69 bd
       0.0035823465 0.08589812 0.041901052 -0.056989204
000260 00 fa b5 bd cd da c2 bd e7 bf 14 bd c0 c9 53 3c
       -0.08885574 -0.09514389 -0.036315825 0.012926519
000270 3d ab c0 3d f3 fa 20 bc 5a 26 20 3d 4a 2b 50 3d
       0.09407661 -0.009825456 0.039099075 0.050822534
000280 7b e0 9c bd eb 69 a9 bd 3a 34 1b 3d 1a eb 3e 3d
       -0.07660004 -0.082721554 0.037891604 0.04661093
000290 63 b9 3e bd 13 60 80 3c 9d 85 c8 bd 67 36 a5 3a
       -0.046563517 0.015670812 -0.0979111 0.0012604714
0002a0 fa cd c8 3c 67 22 78 3a 13 08 82 bc d7 7c 2a 3d
       0.02451228 0.00094655756 -0.01587299 0.041622963
0002b0 b3 2b e1 bc ab 73 98 3d 78 66 b0 bd ca 15 6a bd
       -0.027486658 0.07443937 -0.08613294 -0.057149686
0002c0 4a f9 aa bd bd 38 b9 bd 45 d4 97 3d d3 ba ca bc
       -0.08348329 -0.09044025 0.07413534 -0.024747288
0002d0 3b e0 a0 bd f3 e8 a9 3c 03 16 9b bd 80 63 a9 3b
       -0.078552686 0.020740962 -0.07572558 0.005169332
0002e0 6d b7 42 3d ad 39 ad bc c7 90 52 3d ed 22 a8 3c
       0.04753821 -0.021145666 0.0514076 0.020524466
0002f0 fb 56 a4 bd ba 3b a1 3c c7 05 84 3d 20 e8 bd bc
       -0.08024403 0.0196818 0.064464144 -0.023181975
000300 0d d8 1a 3c 73 04 51 3c b3 e3 0c 3c 3a f3 d4 3c
       0.009450925 0.012757408 0.00859921 0.025994886
000310 70 16 c4 bd 88 62 9b 3d 1d a5 32 3d b3 53 4a 3c
       -0.09574592 0.07587153 0.043614496 0.012349057
000320 cd 0f 95 3c 25 2a a5 bd 13 e6 e9 bc b3 87 8e bb
       0.018196011 -0.08064679 -0.02855209 -0.0043496727
000330 40 bb c2 3c 93 b0 60 bd 67 d7 2d 3c a0 3c fe bc
       0.023770928 -0.054855894 0.010610438 -0.031034768
000340 da 11 95 3d da ca af bd 40 44 2b 3c 3b c0 8a 3d
       0.072787955 -0.08583613 0.010453284 0.06774946
000350 83 10 9f bd cd d5 3b bb ed 45 3d 3d b0 48 25 3d
       -0.07766821 -0.002866137 0.046209265 0.040352523
000360 1a ad 40 3c 33 93 25 3d f3 c3 8e bd 2d 93 aa 3d
       0.011760021 0.040423583 -0.06970968 0.08328853
000370 9a 2a 12 3b 5f 62 84 3d 2d 39 b5 3c 8d 44 36 bc
       0.0022303225 0.06464075 0.02212199 -0.011124742
000380 70 72 2f 3d b0 6a c2 3d a7 04 ca 3d bf 63 ac bd
       0.042833745 0.09493005 0.098641686 -0.084174626
000390 67 bc c6 3b 9b 1f 93 bd 1d a7 6e 3d 58 06 93 3d
       0.00606494 -0.07183763 0.05826484 0.07178944
0003a0 60 cf 8f bd 80 62 bd bb 9b b7 8d 3d 85 6f 87 3d
       -0.070219755 -0.0057795644 0.069197856 0.066130675
0003b0 9f fb 99 bd 48 82 89 3d e0 07 91 bc 3d 2d ae bd
       -0.07518696 0.06714302 -0.01770395 -0.08504722
0003c0 13 2f a3 3c 30 d1 3e 3d 4d a5 75 3d 8b 3f 8b bd
       0.019919908 0.046586215 0.059972096 -0.06799229
0003d0 45 55 94 bd 73 9a 89 bd 17 20 68 3d c8 fd b2 bd
       -0.07242826 -0.06718912 0.05667123 -0.08739811
0003e0 9a 0d 5d ba 13 bb f0 bc 50 d5 32 3d b3 e0 a0 3c
       -0.0008432508 -0.029386079 0.043660462 0.019638395
0003f0 87 d6 4e bd 40 16 8f 3c 88 78 bc 3d 47 e0 86 3c
       -0.050497558 0.017466664 0.09202677 0.016464366

layers_conv.3.2.running_mean f4 [20]
000000 58 5f 17 3d 02 c2 2d 3d 96 86 53 3d e6 5d 51 3d
       0.03695616 0.04242135 0.051642023 0.05111494
000010 fc 13 31 3d 14 3e 22 3d 8a 8b 0f 3d ce df 73 3d
       0.04323195 0.039609984 0.035045184 0.05953961
000020 3d 1b 5b 3d 2a 10 2f 3d a2 b7 36 3d 04 0e 2b 3d
       0.053492773 0.042740025 0.04460872 0.041761413
000030 38 bc 25 3d f4 c0 2e 3d f1 82 5d 3d d8 49 5a 3d
       0.040462703 0.042664483 0.054079954 0.05329308
000040 9e 29 56 3d bd ea 20 3d 76 0a 4d 3d 18 96 8c 3d
       0.052285783 0.039286364 0.050058804 0.068645656

layers_conv.3.2.running_var f4 [20]
000000 ce 33 54 3f c6 02 56 3f e2 ff 55 3f c0 a9 56 3f
       0.8289155 0.8359798 0.8359357 0.8385277
000010 81 bc 55 3f 29 d2 54 3f 4b 46 54 3f 23 99 57 3f
       0.8349076 0.8313318 0.8291976 0.84218043
000020 f3 ef 55 3f 56 63 56 3f 01 7d 55 3f d4 10 55 3f
       0.8356926 0.83745325 0.83393866 0.832288
000030 11 6a 54 3f 37 97 55 3f 34 ee 56 3f f7 45 58 3f
       0.82974344 0.8343386 0.8395722 0.8448176
000040 a3 5f 56 3f fe 5d 54 3f d9 3c 56 3f 80 f0 59 3f
       0.8373968 0.8295592 0.83686596 0.851326

channel_interaction.query.weight f4 [20, 20]
000000 c5 99 24 3e e1 20 5a 3d 9c 39 d7 3a c1 a8 b0 3d
       0.16074283 0.053254012 0.0016420367 0.08625937
000010 86 6c d1 bd ed 72 c3 bd 82 bf 41 be fb e4 3c 3e
       -0.10225777 -0.09543405 -0.1892071 0.18446724
000020 76 fd c0 bd 5f 65 33 3e 20 59 ef 3c 3e 69 6a bc
       -0.09423344 0.17519139 0.029217303 -0.014307318
000030 39 24 49 3e 42 1e e5 3d ff bb fb 3d 24 2b 00 bd
       0.19642724 0.11187412 0.12291717 -0.031291142
000040 ea 71 bf 3d cd ef 5b be 7a 9b af bb 27 29 4b ba
       0.09347899 -0.21478195 -0.0053591104 -0.00077499676
000050 65 84 3e be ae d0 27 bd e6 a7 98 3d 2c 8f 1a 3e
       -0.18605192 -0.040970497 0.07453899 0.15093678
000060 ca 07 a2 3c 2e fc ad bd f1 da d8 bd 14 05 14 be
       0.019779105 -0.08495365 -0.10588635 -0.14455062
000070 23 d6 aa bd 0c fc dd bd f4 32 2e be c0 68 33 3d
       -0.083416246 -0.1083909 -0.17011625 0.04380107
000080 b7 68 13 be 43 92 a6 bb 14 af 24 3e 18 4f 18 be
       -0.14395414 -0.0050833537 0.16082412 -0.14873922
000090 84 a4 0f 3e 5c 51 39 be b0 d6 41 be f7 75 5c 3e
       0.14027601 -0.18097442 -0.18929553 0.21529375
0000a0 f8 8b e0 bd a4 70 43 3e 2d 73 4d 3e cb db 7c 3d
       -0.10964197 0.19085938 0.20063467 0.06173305
0000b0 d9 5e e4 bd de ad 6c 3d 96 9b 3e 3d 5e bb 3e 3d
       -0.11150903 0.057783 0.046535097 0.046565406
0000c0 81 29 e4 3c be fc 60 3e bd 7d fc 3c 53 4b e3 3d
       0.027851822 0.21971413 0.030821675 0.11098351
0000d0 b3 98 aa bd d5 55 96 bd 73 f3 3d 3e 45 61 9a bc
       -0.08329906 -0.0734059 0.185499 -0.01884521
0000e0 ec 92 be 3d e2 86 c9 bd e3 ea 30 3d 9b be 31 be
       0.09305367 -0.0984018 0.043192755 -0.17357866
0000f0 3e 06 00 3d 38 22 0d 3d f6 ac 9a bc e4 a3 b8 3d
       0.031255953 0.03445646 -0.018881302 0.09015635
000100 e3 a9 f5 3d f4 ba 22 3e c8 f7 50 be 57 08 8f bc
       0.11995294 0.1589163 -0.20407021 -0.017460031
000110 b2 55 04 3e fa 2c 18 3e 64 70 33 be 2e 6b 82 b8
       0.12923315 0.14860907 -0.17523342 -6.218847e-05
000120 ee a6 3c bc a7 45 18 bd 1d 40 c4 3d 2c a9 bf 3d
       -0.0115144085 -0.0371758 0.09582541 0.09358439
000130 b5 15 50 be 3f 8c 12 3d 24 aa f6 bd 58 3e ec 3d
       -0.2032078 0.03577828 -0.120441705 0.115353286
000140 9b a0 a7 bb 47 1d 1f 3d 7b de ff bc 81 72 36 3e
       -0.005115581 0.03884628 -0.031234017 0.17817117
000150 8d d1 3d be b9 08 c7 3d e9 d4 5e 3e 48 e8 b4 bd
       -0.18536969 0.097184606 0.21760906 -0.08833367
000160 67 9d 6b 3d 20 1c e2 bd 7b 27 dd bd 85 f1 f9 bd
       0.057523157 -0.11040521 -0.10798546 -0.12204269
000170 1f 5c e2 3d 05 ae 13 3e 5b 1f f2 bc 9c cb de bc
       0.11052727 0.14421852 -0.029555967 -0.027196698
000180 d5 44 25 be 97 38 f7 3d 54 56 d0 3d 5d a7 25 bc
       -0.16139539 0.120713405 0.10172716 -0.010110703
000190 c9 e0 0f be d0 bd e5 3d 12 82 15 be 5c 20 15 3e
       -0.14050592 0.112178445 -0.14600399 0.14563125
0001a0 ac 22 36 be 6d c0 a0 3d 10 d7 1a be 7a 3f d7 3c
       -0.17786664 0.07849202 -0.15121102 0.026275385
0001b0 e4 5e 5d 3e a1 fa 20 3e 16 0c 2b be d0 50 5a bd
       0.21618229 0.15720607 -0.16703829 -0.053299725
0001c0 31 fb 17 3d 96 d3 98 bd 3b a7 28 bd 1d 03 2d 3e
       0.03710479 -0.07462232 -0.04117511 0.16895719
0001d0 b9 54 2b be b9 7b 33 be 65 fc 3b be 00 52 85 bb
       -0.16731538 -0.17527665 -0.18358 -0.004068613
0001e0 7a aa 1c bd 03 fb 6d 3d f0 cd fa bd e6 95 ec bd
       -0.038248517 0.05810071 -0.12246311 -0.11552028
0001f0 0b 43 d0 bd 67 1f b0 3d 93 23 5d 3e bf d3 45 be
       -0.101690374 0.085997395 0.21595602 -0.19319056
000200 3e e6 fb 3d ab 25 17 3e 49 68 21 be ba a4 05 be
       0.122997746 0.14760463 -0.15762438 -0.1305112
000210 ab d3 31 3e c5 2a b2 bd 10 3b f6 3d c8 89 90 3c
       0.17365901 -0.08699564 0.12022984 0.017643824
000220 72 2d 4c be 54 b6 f6 3d 2f ad c7 3c be 5d 0b be
       -0.19939211 0.12046495 0.024374573 -0.13609979
000230 19 82 20 3d 6d 60 ad bd 35 e8 01 be 04 4b 8e bd
       0.03918657 -0.084656574 -0.12686236 -0.06947902
000240 db 44 3b be ad be 54 be 13 8e 99 bb 5a 58 15 be
       -0.18287985 -0.20775862 -0.004686126 -0.14584485
000250 bb ca 9b 3d 5a e9 1a 3e 4b 03 d2 bc f3 8f 41 be
       0.07607027 0.15128079 -0.025636336 -0.18902569
000260 3a 69 51 be 1d 9c f0 3d 24 3c 70 3c 4d 1a 47 be
       -0.20450297 0.11748526 0.014662776 -0.19443627
000270 89 5a c8 bd 48 1e 8f 3d ba d0 94 3c 48 4d dc 3d
       -0.09782893 0.069881976 0.018165935 0.10756928
000280 7b 8d 57 3e 06 51 a4 bd 1d ce 8b bd f4 b5 62 be
       0.21050064 -0.080232665 -0.06826422 -0.22139722
000290 c5 b3 51 3e 48 66 9d bc 14 90 84 bd cd 08 a6 bc
       0.20478733 -0.01921381 -0.06472793 -0.020267868
0002a0 26 62 c6 bd bd e5 bd 3c ec fd 29 3e a8 dc 9f 3d
       -0.09686689 0.023180837 0.1660077 0.07805759
0002b0 86 f2 62 3d fe 2e d2 bd f0 b1 fd 3d 2f d7 63 3e
       0.05540707 -0.10262869 0.123874545 0.22250055
0002c0 f5 7a 43 be 34 ad 01 be 0a 7f 5e 3e dd f6 30 3e
       -0.19089873 -0.12663728 0.21728149 0.17281671
0002d0 f2 3b 6f 3d 7b 78 51 3e 04 8e 97 bb a0 64 58 3d
       0.058406778 0.20456116 -0.004625084 0.05283034
0002e0 51 65 da 3d 1c d4 55 3e 2e ee 2b be 6a fb cc 3d
       0.10663856 0.20881695 -0.16790077 0.10008891
0002f0 39 59 ba 3d 34 78 bf bd 88 5d c3 bd ed b9 ae 3d
       0.09099049 -0.09349099 -0.09539324 0.08531556
000300 b0 5e 08 be a6 07 f7 3d 1f 0a 16 3e 02 d1 e0 3d
       -0.1331737 0.12062006 0.14652298 0.10977365
000310 53 56 fb bd d0 80 57 3e 91 7d ae 3d 76 b5 60 be
       -0.122723244 0.21045232 0.08520044 -0.21944222
000320 90 f2 5c be 30 58 a2 3d a6 43 d3 3d c1 9f 46 3e
       -0.21576905 0.07926977 0.10315637 0.19396879
000330 6b 3a 31 3e 3d 2e 0e 3e 2b ca 89 bd 57 8f 78 bc
       0.17307441 0.13884826 -0.067280136 -0.015170894
000340 9e 69 0f be 76 38 f4 3b 7d 74 41 3d 05 e5 d0 3d
       -0.14005134 0.0074530197 0.047230233 0.10199932
000350 55 bf 3c 3d e1 34 26 3d d9 14 45 39 70 7a 33 be
       0.046080906 0.040577773 0.0001879515 -0.17527175
000360 bb 97 c7 bd cb 84 54 bd 70 d6 74 3d 3f d1 0d 3c
       -0.09745737 -0.051884454 0.059774816 0.008655845
000370 b8 d2 00 be a9 fc d4 bd 9e 40 62 bd 74 42 43 3e
       -0.12580383 -0.103997536 -0.055237405 0.19068319
000380 4a be 18 3e 2c c7 44 be ee 2f f8 bd 1a 79 aa 3d
       0.1491634 -0.19216603 -0.12118517 0.083238795
000390 26 cc 9d bd 8f cf 8e bd 5d 80 3a be cb 3b bb bc
       -0.07704954 -0.069731824 -0.18213029 -0.02285566
0003a0 aa fb 9d 3d 66 2d 4b 3e db 8d 78 bd fd 2d b5 bd
       0.07714017 0.19841537 -0.06068216 -0.08846662
0003b0 aa 4b 29 3d 8b 3a 91 3c cc 12 de 3c e2 70 54 be
       0.041331924 0.01772811 0.027108572 -0.20746186
0003c0 0c c9 32 3e 73 c9 2c bb 61 37 9d bc 73 1f 94 bd
       0.17459506 -0.002636519 -0.019191446 -0.07232561
0003d0 ba 01 53 be 37 6d 97 bd c9 34 52 be 45 6b bc 3d
       -0.20606127 -0.07393878 -0.20527948 0.092001475
0003e0 ea 3f f0 bd 4c b7 4f be 8f ff e7 bd 7b 28 b3 3d
       -0.11730941 -0.20284766 -0.11328041 0.087479554
0003f0 ab dd fe bd 63 f5 30 be d2 19 b4 bd a2 3e 57 3e
       -0.124446236 -0.17281108 -0.08793987 0.21019986

channel_interaction.key.weight f4 [20, 20]
000000 3a 3f 16 3e 30 a2 60 3e 58 9a 33 be b1 56 13 bd
       0.14672557 0.2193687 -0.17539346 -0.035971347
000010 7d 8d 8a bd 86 55 ea 3d 19 50 df 3d fe a8 4f 3e
       -0.06765268 0.114420936 0.10903949 0.20279309
000020 08 ae 1d 3e 98 87 1b 3e ac c3 2d be 9c a7 17 be
       0.15398419 0.15188444 -0.16969174 -0.14810032
000030 86 77 37 be c2 c7 e1 bd bb 72 e1 bd 60 fa 1f 3e
       -0.17916688 -0.11024429 -0.11008211 0.15622854
000040 6f 38 de bd a8 69 44 3e b4 37 41 3e be c2 0e 3e
       -0.108506076 0.1918093 0.18868905 0.13941476
000050 ae 53 06 3e ab 9b 22 3e b5 1d 16 3d 6a 22 18 be
       0.13117859 0.15879695 0.036649425 -0.14856878
000060 85 18 2b 3e 17 d8 26 3e 17 d4 1b 3e 00 da 1f be
       0.16708572 0.16293369 0.15217625 -0.15610504
000070 88 e0 e6 bc f5 78 14 3e c6 80 e8 bb ac 80 81 bc
       -0.028183237 0.14499266 -0.007095429 -0.015808426
000080 ec b6 f4 bd 47 4c e5 3d ea f7 c9 3d cc e7 47 bd
       -0.11948952 0.111961894 0.09861739 -0.048805043
000090 db fe 28 3e ad b4 06 be ad 32 ee 3d b1 cd 19 bc
       0.1650347 -0.1315486 0.116307594 -0.00938742
0000a0 1d 0b b9 bd bf ba 0d 3d fa d5 47 be 63 f3 3a 3e
       -0.09035323 0.034601923 -0.1951522 0.18256907
0000b0 3e 9d 41 bd 20 ab eb bd 47 b9 b3 3c a9 c2 03 3e
       -0.0472691 -0.11507249 0.021938933 0.12867226
0000c0 be 45 2a 3e 0a 6d 17 3e 53 a0 28 bd b1 e1 4f 3d
       0.16628167 0.14787689 -0.041168522 0.050752345
0000d0 28 2d 52 3e c7 03 f6 3d ba 24 64 3e 94 91 1e 3d
       0.20525038 0.12012439 0.22279635 0.038713053
0000e0 72 f6 5b be 36 d8 87 3d 07 93 68 bd 64 cb 23 3d
       -0.2148073 0.06633036 -0.05678084 0.03998889
0000f0 99 b0 b2 3d 24 36 01 3e d1 1b d9 bd 22 f4 29 be
       0.087250896 0.1261831 -0.10601009 -0.16597036
000100 14 b2 51 3e c9 b3 67 3d 73 95 db 3d 94 69 79 3d
       0.20478088 0.05656794 0.107218646 0.060891703
000110 a2 43 24 bd c7 d3 52 be 0b 7c 4d 3e 02 f5 58 3e
       -0.040103562 -0.20588599 0.2006685 0.21187213
000120 53 61 98 bb 82 9b 6f bd c5 4c c9 3d 83 36 56 be
       -0.004650274 -0.058497913 0.09829096 -0.20919232
000130 d1 6f 7c 3d f3 69 43 3e a6 8e 6e bd 83 c1 4a bc
       0.061630074 0.19083385 -0.05824151 -0.012375238
000140 f6 70 e3 3d 52 bb a5 bc 0c 50 96 bb 2a e2 91 3d
       0.1110553 -0.020230923 -0.004587179 0.071232155
000150 d9 d8 8d bc 3c 23 84 ba e5 a4 5d bc 53 a8 00 3e
       -0.017315315 -0.0010081301 -0.013528083 0.1256421
000160 70 7e 53 3e d5 ab a3 3c ac a3 06 3d 11 ed 22 be
       0.20653701 0.019979397 0.032870933 -0.15910746
000170 52 1c ff 3d d7 6c 01 3e 23 df 26 be 11 4d 06 3e
       0.124565735 0.12639175 -0.16296057 0.13115336
000180 13 0a 7b 3d 97 8b 0c be 43 f5 16 bd 62 d6 4b be
       0.061288904 -0.13725124 -0.036854994 -0.19906
000190 15 e8 f7 3c b6 fd e5 3d fd 12 1e be 38 8f 89 bc
       0.030262033 0.11230032 -0.15436931 -0.016791925
0001a0 c4 2a 34 3e 68 7c 2f 3e e0 40 12 3e 30 2b 00 be
       0.17594439 0.17137301 0.1428256 -0.12516475
0001b0 cf 5a a6 bb 8d d4 dc bd 51 c5 4c 3e 29 f3 21 3c
       -0.005076743 -0.10782728 0.19997145 0.009884634
0001c0 e3 1e 0d be ca fe fd bc a5 54 4b 3c ae 6f 9a 3d
       -0.13781314 -0.031005282 0.012410318 0.075408325
0001d0 1d 70 0b bd 1b 15 1b 3d b0 b9 57 be 7f 8c 8a bd
       -0.034042466 0.037861925 -0.21066928 -0.06765079
0001e0 cd 10 fd 3d fc 02 bc 3d 2c e5 5f 3e 05 e6 36 3e
       0.1235672 0.09180257 0.21864766 0.17861183
0001f0 83 a5 ed 3d de 53 de bd e0 98 4e 3e ac 07 1d 3e
       0.116038345 -0.1085584 0.20175505 0.15334958
000200 db 23 a4 bd 8f 19 d4 bd 8a 72 e3 bd 5e 59 11 be
       -0.080146514 -0.103564374 -0.11105831 -0.14194247
000210 1b 88 b7 3d f9 30 ee bd 67 68 4a 3e ad d6 4d 3d
       0.08961507 -0.116304345 0.19766389 0.05025356
000220 0f 5a 76 3b 0c 13 90 3d 8f ea 00 3e ab 04 18 bd
       0.00375903 0.07034883 0.12589477 -0.037113827
000230 be 1c 31 be 23 a6 5f be 1d ec 54 3e cf 3b 56 3e
       -0.1729612 -0.2184072 0.20793195 0.20921253
000240 8b b2 ab bd 04 a1 49 3e a7 55 b5 3d 30 15 47 be
       -0.08383664 0.19690329 0.088542275 -0.19441676
000250 dc 22 0d bd 55 c7 4e be 8e b5 c6 3d 15 08 a3 3d
       -0.034457073 -0.20193227 0.097025976 0.07960526
000260 55 fa d9 3d 0b 70 13 bc 4f a3 04 3d eb 73 09 be
       0.1064345 -0.008998881 0.032382306 -0.13423125
000270 3d b3 3d be cf 84 a1 bd 4b 12 a7 3d 81 4c 29 bd
       -0.18525405 -0.07886659 0.08157786 -0.041332725
000280 38 02 3d bd 8a f2 f9 bd 5b a3 e4 bd 7f bd ef bd
       -0.046144694 -0.12204464 -0.1116397 -0.117060654
000290 6c f1 3c bd 5b e4 55 3e c9 5d 6a bd 8e 5a f2 bc
       -0.046128675 0.20887892 -0.057218347 -0.029584195
0002a0 15 9e f0 bd ee 4d 0b be 4d 3e 60 be 87 e2 11 be
       -0.11748902 -0.13603947 -0.21898766 -0.1424657
0002b0 0e f6 83 bd 53 e4 53 bd 75 a1 1d be 47 cd 8d bc
       -0.064434156 -0.05173142 -0.15393622 -0.017309798
0002c0 7c 15 41 3e aa d7 30 be 32 eb 0e 3e c4 31 30 be
       0.18855852 -0.1726977 0.13956907 -0.17206484
0002d0 c3 fd 25 3d a7 90 0e 3b 13 51 38 be de 8c ea bd
       0.04052521 0.00217537 -0.17999677 -0.114526495
0002e0 1c 83 d9 bd bb 53 2e be e5 a3 85 3c 8c 2b 36 be
       -0.1062071 -0.17024128 0.016313503 -0.1779005
0002f0 d0 3d 55 3e 3d 79 50 3c b3 86 2e be b1 1c b7 bd
       0.20824361 0.012724218 -0.17043571 -0.08941019
000300 95 f7 47 3e b1 70 16 bc 44 5d d2 3d 26 49 1d 3e
       0.19528039 -0.009182141 0.10271695 0.15359935
000310 f5 e5 e9 bd e8 80 44 3e b2 e3 f1 bd e5 e5 3e be
       -0.11420814 0.19189799 -0.118110076 -0.18642385
000320 14 c9 0a 3e 1b 03 2e be c3 89 1b be e4 54 2e be
       0.13553268 -0.16993372 -0.1518927 -0.1702457
000330 b7 a2 9f 3d cb 9e 39 bc 1c 36 45 3e 17 10 c9 bd
       0.07794707 -0.011329363 0.19258922 -0.09817522
000340 c6 d8 30 3c ee cb ec 3d bd 8e 15 bd 4e 65 80 bc
       0.01079387 0.11562334 -0.03651308 -0.015673306
000350 5d a4 11 be 4a a7 07 3e 89 c5 ab 3d 78 c8 1c bd
       -0.14222856 0.1324741 0.08387286 -0.03827712
000360 e9 86 c1 bd 30 79 18 3e 1f cb 48 be 97 3f c0 3d
       -0.0944956 0.1488998 -0.19608735 0.09387129
000370 ea d4 1f 3e 5a 9d 99 bd ca ed b5 3d ad 8c 75 3d
       0.15608564 -0.075007156 0.08883245 0.059948612
000380 e0 6f fc 3c 0b cd c4 bd 1e 4a 05 bd 98 33 08 bd
       0.030815065 -0.09609421 -0.032541387 -0.03325233
000390 64 72 b0 3d 24 dc 62 be e4 e5 35 bc 7b 7f 90 3d
       0.08615568 -0.2215429 -0.0111021735 0.07055565
0003a0 ad df 89 3d e8 fc f8 bd 5d 9a a3 bd cb f0 07 3e
       0.06732116 -0.12157613 -0.07988427 0.13275449
0003b0 85 c4 55 3d 7d 9b 63 3e 25 57 a4 bd ae f1 fd 3d
       0.05218937 0.22227283 -0.08024434 0.12399612
0003c0 e4 c3 fa bc 9d 41 11 3d cd 9d a3 bb ae 46 59 be
       -0.030610986 0.035462964 -0.0049931766 -0.21218368
0003d0 22 b4 b9 3d 14 13 7c 3d d6 7d 47 be 94 ef fb bb
       0.09067561 0.06154163 -0.19481596 -0.007688472
0003e0 36 57 2b 3d 66 42 38 3e 79 3c 62 3e 89 6e 22 bd
       0.041831218 0.17994079 0.22093381 -0.039656196
0003f0 30 cf 21 bd 84 00 4d bd c9 91 28 be 9d ef df 3d
       -0.03950423 -0.05004932 -0.16461863 0.109343745

channel_interaction.value.weight f4 [20, 20]
000000 b1 08 20 be f2 a6 1e 3e b6 a5 84 bd 2e 6d e8 3d
       -0.15628316 0.15493372 -0.06476919 0.113489494
000010 e4 66 2a 3d 6c 54 44 3e 77 71 fb bb 52 1f 50 3d
       0.04160203 0.1917283 -0.007673438 0.05081112
000020 19 3c 1f be cd b2 19 be 66 d7 2a 3e c6 bb 14 be
       -0.15550269 -0.15009613 0.1668373 -0.14524755
000030 b9 3d bc 3b 0c ea 59 be 2e 63 ad bd ad c8 ee bc
       0.0057446626 -0.21280688 -0.08466183 -0.029148424
000040 be 53 0a 3e 46 94 0d 3e 75 b8 9d 3d fe 48 5d bd
       0.13508508 0.13826093 0.07701198 -0.05402469
000050 54 1f c5 3d 56 39 6b 3d e8 c0 92 3d 7a 8d 04 3d
       0.09625116 0.057427727 0.071657 0.032361485
000060 71 17 6f bc 72 9e 56 3e 28 c6 1f 3e 02 ae 7d bc
       -0.014592991 0.2095888 0.15602934 -0.015483381
000070 af 43 61 be 96 a4 5d 3d 5e 73 20 3d e4 f1 d7 3d
       -0.21998475 0.05411204 0.039172523 0.10544184
000080 f9 30 57 be 51 e0 2f 3d 30 86 41 3e e6 49 f2 3c
       -0.21014775 0.042938534 0.18898845 0.029576253
000090 b6 2b e2 bd 5c 56 d9 bd e3 81 89 3d 14 b2 c9 3d
       -0.110434934 -0.10612175 0.06714227 0.09848419
0000a0 71 d4 30 be 8a e8 4b 3e 53 b1 ef bd 83 d5 44 3d
       -0.1726854 0.19912925 -0.11703744 0.048055183
0000b0 85 1f 13 3e 8a b3 27 be b0 3e 20 3e 03 d9 9a 3a
       0.14367492 -0.16377082 0.15648913 0.0011813942
0000c0 b0 42 90 bd c2 a4 11 be 60 2b 38 3e c9 5f 04 3e
       -0.0704397 -0.14223006 0.17985296 0.12927164
0000d0 96 17 45 bd f1 fc 5d 3d 49 9d 78 3d 5c e1 37 be
       -0.048118196 0.0541963 0.060696874 -0.17957062
0000e0 40 d6 4a 3e 12 f5 46 be 9c 30 aa 3d bc 3c c6 3d
       0.19808292 -0.19429424 0.08310053 0.09679553
0000f0 1f 66 5f bb 2f c2 ea bd 0e 91 40 be 5a 4a 17 3e
       -0.0034087969 -0.11462819 -0.18805334 0.14774457
000100 a0 5d 50 bc 9b ea c6 bd 06 6d a0 bd a5 99 c6 3c
       -0.012717634 -0.09712716 -0.078332946 0.024243185
000110 74 35 32 3e cd 93 4d be a6 de e1 3c a0 fe 4a be
       0.17403203 -0.20075913 0.027571987 -0.19823694
000120 84 a8 3e be 2f 5d 0b be 00 c1 28 3e 79 b0 32 bd
       -0.18618971 -0.13609765 0.16479874 -0.04362533
000130 e0 70 dc 3c c9 f5 b0 3d 09 49 f5 3c 8f 10 ae 3d
       0.026909292 0.0864063 0.029942052 0.08499252
000140 fa 65 ec bd 5b ec 76 3d 85 3b 32 3e 45 d2 5e be
       -0.11542888 0.060284 0.17405517 -0.21759899
000150 ab 07 fa 3d 96 16 56 bd 40 eb 02 3e b4 0e 57 bd
       0.12208494 -0.052267633 0.12785053 -0.052504256
000160 3a 19 5f 3d f4 83 2f be 65 47 79 bd 53 e1 d4 bd
       0.054467417 -0.1714018 -0.060859103 -0.1039454
000170 6e 31 30 be 2a 90 72 3d a2 57 55 3e 43 84 2a be
       -0.17206356 0.059219517 0.2083421 -0.16652016
000180 f9 25 62 3e 92 aa cf 3c a2 f8 5b be 32 ec 81 bd
       0.22084798 0.025349889 -0.21481565 -0.06343879
000190 d4 a9 15 3e 28 0e 42 be 8a aa 10 bd 50 e9 56 3e
       0.14615566 -0.18950713 -0.03531889 0.20987439
0001a0 6c d9 8c bd 34 17 07 3e a6 c3 34 bd bf 6e f8 bc
       -0.068774074 0.13192445 -0.044131897 -0.030326245
0001b0 ca 5c 02 be a7 21 2b 3e e0 0d 4a be 6a d3 16 be
       -0.12730709 0.16712056 -0.19731855 -0.14729086
0001c0 d3 bd 4c be 24 9e f2 3c 96 0a 0a be ec 4d 50 3e
       -0.19994287 0.029616423 -0.134806 0.20342225
0001d0 d5 c2 bf 3d 49 60 11 3e fa e4 c9 3c be 38 39 3e
       0.09363333 0.14196886 0.024645317 0.18088052
0001e0 10 52 f3 bd 66 ff 98 bd 43 42 41 3e 2c b8 b9 3d
       -0.118808866 -0.074705884 0.18872933 0.09068331
0001f0 35 c2 0d be 93 32 cc bb 33 c8 bf 3d 75 21 18 3d
       -0.13843615 -0.006231615 0.09364357 0.037141282
000200 83 68 63 3e 54 ac bd bd 5d bd 5f be 39 91 00 3e
       0.22207837 -0.092613846 -0.2184958 0.12555398
000210 c8 53 81 3c 0d 44 39 be 59 8a 50 bc 88 dc 4d be
       0.01578702 -0.18092366 -0.012728297 -0.20103657
000220 6e 01 08 3e d7 ba 4f 3e d5 f9 6a 3d b3 2d 61 3e
       0.13281795 0.20286117 0.057367165 0.21990089
000230 1d ed 06 be c0 3b 23 bd 36 69 1b 3d 44 c8 26 bc
       -0.13176389 -0.039851904 0.037942134 -0.010179583
000240 d3 6b 39 3e 2a 2a 33 3e e5 51 65 bd a1 63 51 be
       0.18107538 0.17496553 -0.055986304 -0.20448162
000250 e3 4d 3f 3d 2a 30 10 3e a7 9e d8 3c 3c 24 a5 bd
       0.046705138 0.14080873 0.026442839 -0.08063552
000260 a7 1f 7b 3d e4 3e 56 be 3a 4b 3e 3e 9c 97 f6 3c
       0.061309483 -0.20922428 0.18583384 0.03010159
000270 86 e1 5e 3e 06 4f 43 3e a3 94 02 3e 45 11 a6 bd
       0.21765718 0.19073114 0.12752013 -0.08108763
000280 a5 7f ea bd 8c ce 6e 3c 96 0d 57 3e 44 d2 fe bc
       -0.114501275 0.014575612 0.21001276 -0.031106122
000290 ce c1 28 3e 28 88 bb bc c7 dc b4 3d dd 00 fb bd
       0.1648018 -0.022892073 0.088311724 -0.12256024
0002a0 b4 d4 e3 3b 65 53 45 3e 9b a8 3a be 78 ab e0 bd
       0.0069528464 0.19270094 -0.1822838 -0.10970205
0002b0 ee 4f 23 bd 47 70 55 be 7b 63 45 be a8 cb 8d 3b
       -0.03987115 -0.20843612 -0.1927623 0.004327256
0002c0 9b aa e1 bc fb dc 15 3e 62 b3 c3 bc c2 7a 20 3e
       -0.027547171 0.14635079 -0.023889247 0.15671828
0002d0 eb 2a 02 3e 5d 9a 32 3e d0 bb 3d bd df 92 e0 3c
       0.12711684 0.17441697 -0.04632169 0.027413784
0002e0 44 f1 47 be 60 b4 03 3e ca 95 c0 3d e2 eb 3b 3d
       -0.1952563 0.12861776 0.0940357 0.045879252
0002f0 d4 23 44 bd 62 0f 50 3e fd 2f 3d be 0e 42 f0 3d
       -0.04788573 0.20318368 -0.18475337 0.11731349
000300 7d 3c 48 3e 67 a8 a0 3d 21 bc 3b 3e cd 2e 0c be
       0.19554324 0.0784462 0.18333484 -0.13689728
000310 ae 5e 4d 3e b5 66 28 3e 87 64 c0 bd 77 be 43 3e
       0.20055649 0.1644543 -0.09394174 0.19115625
000320 e4 b5 cf bd 64 90 41 be b5 7e 56 3e f1 fd 8e 3d
       -0.10142115 -0.18902737 0.20946772 0.06982029
000330 42 90 ff 3d e1 f2 5e 3d 9d 21 04 3d 0c 8a 98 3d
       0.12478687 0.054430846 0.03225862 0.07448205
000340 15 50 aa 3d 3d 7c 18 be c7 be 15 3e ff d6 74 3c
       0.08316056 -0.14891143 0.14623557 0.014943837
000350 47 02 c7 3d 3e 61 47 be 3a db 0d be 87 41 cd bd
       0.09717231 -0.19470689 -0.1385316 -0.10022264
000360 d9 64 3b be 3f aa 32 3e 6f 68 0f 3d ec 89 27 be
       -0.18300189 0.17447756 0.035011705 -0.16361207
000370 a7 5f 0d be 29 3a 52 bd 68 0b 41 3e f9 de bc bd
       -0.1380602 -0.051324997 0.18852007 -0.09222216
000380 8d af 4e 3e c7 f4 fa 3d 88 a5 24 be d4 e0 4d be
       0.20184155 0.12253719 -0.1607877 -0.20105296
000390 91 ae 82 3d 1a 7a 1c 3e f8 54 36 bd 92 dc 48 be
       0.06380952 0.15280953 -0.044514626 -0.19615391
0003a0 38 66 aa 3d f0 2d 98 bd e7 f3 d8 bd d5 bf 9b 3c
       0.08320278 -0.07430637 -0.10593396 0.019012371
0003b0 8b 31 2b 3e 77 e8 4d be 70 0e 4e 3d 2f 7e 2f bc
       0.16718118 -0.2010821 0.050306737 -0.010711237
0003c0 e0 22 1d be 41 ed 3f 3e a5 5a 0a bd bd 06 5b 3e
       -0.15345335 0.18742849 -0.03377785 0.21389289
0003d0 8c f1 22 be 07 21 5f 3c c7 b8 72 bd 49 2b 40 3d
       -0.15912455 0.013618714 -0.05925825 0.04691628
0003e0 29 c0 5c be d1 35 88 3d 48 fe f3 bd 0e 3c 00 3e
       -0.21557678 0.0665089 -0.11913735 0.12522909
0003f0 91 ce c4 bd 62 15 f5 ba 60 32 31 be 8f 16 13 be
       -0.09609712 -0.0018698389 -0.17304373 -0.14364074
